params/singles/VR/attempt2/bestEncoderParamssingle_vr.pt (torch, 113805 bytes, 8 tensors)

feature_extractor.0.weight f4 [16, 1, 1, 50]
0	0xbc8fc302	-0.017549042
1	0x3b899da1	0.004199699
2	0xbba01a32	-0.004885935
3	0x3c61ce3a	0.013782078
4	0x3c23330c	0.009960901
5	0x3c97dd3c	0.01853811
6	0x3c94e9f2	0.01817796
7	0x3cbc0c9e	0.022955235
8	0x3c947566	0.018122386
9	0x3c1f082f	0.009706541
10	0x3c1f62fd	0.0097281905
11	0x3a69ab15	0.0008913738
12	0xbc5495aa	-0.012975136
13	0xbbf2612d	-0.007396838
14	0xbd042f00	-0.032271385
15	0xbcf18b5b	-0.029485395
16	0xbcca4613	-0.024691617
17	0xbd378ae9	-0.04481021
18	0xbc2f4f48	-0.0107000545
19	0xbd696fd1	-0.056991402
20	0xbc75502c	-0.014972728
21	0xbcde23a4	-0.027116604
22	0xbca38bce	-0.019964125
23	0xbbd9a4f8	-0.0066419803
24	0xbba4cd61	-0.005029366
25	0x3c6e1233	0.014530706
26	0x3d50b2e7	0.050951865
27	0x3c59acef	0.0132858595
28	0x3dbceb9b	0.09224626
29	0x3d3ae526	0.04562869
30	0x3db45134	0.08804551
31	0x3d84ec55	0.06490389
32	0x3d204c0d	0.039135028
33	0x3d6b3b5c	0.057429656
34	0x3c228677	0.009919754
35	0x3c327561	0.010892243
36	0xbcdbe611	-0.026843103
37	0xbcf85f7e	-0.030318972
38	0xbd1ad850	-0.037803948
39	0xbda192ba	-0.07889314
40	0xbc88c73b	-0.016696563
41	0xbd88ad5a	-0.06673689
42	0xbceb986c	-0.028759204
43	0xbb34305f	-0.0027494652
44	0xbcd13fe2	-0.025543157
45	0x3c2ac562	0.010423036
46	0x3bb1e66f	0.005429081
47	0x3bf0f9f2	0.0073540146
48	0x3c4c4c7a	0.012469405
49	0x3c40fb9e	0.01177874
50	0x3d0e4092	0.034729548
51	0x3d17e1b2	0.037080474
52	0x3b6a4a76	0.0035749949
53	0x3c5e3bef	0.013564094
54	0x3cb88ae8	0.022527173
55	0x3d6ad3c2	0.057330854
56	0xbd1b4edd	-0.037917007
57	0x3cd362da	0.025803972
58	0x3d459f99	0.048247907
59	0xbd515cb9	-0.051113818
60	0xbbf9ab5a	-0.0076193037
61	0x3c8a9377	0.01691602
62	0xbd6e42b6	-0.05816909
63	0xbc8c4e1c	-0.01712709
64	0xbd75bb6c	-0.059993193
65	0xbc808553	-0.015688574
66	0xbd82a0d9	-0.063783355
67	0xbd6a6590	-0.057225764
68	0xbdaea71d	-0.08527968
69	0xbcee5d6a	-0.029097278
70	0xbdb0e18b	-0.08636769
71	0xbd470943	-0.048592817
72	0xbda1830f	-0.078863256
73	0xbd4d4b4a	-0.05012063
74	0xbd6dc878	-0.05805251
75	0xbd2d7231	-0.04234523
76	0xbd190b45	-0.037364263
77	0xbd34479a	-0.044013597
78	0xbc114fc5	-0.008869116
79	0x3bde61a3	0.0067865415
80	0xbc8955f2	-0.016764615
81	0x3cc6e5cc	0.024279498
82	0x3d091d3e	0.033475153
83	0x3b73d270	0.0037204288
84	0x3d72460d	0.059148837
85	0x3d93d8a2	0.07219054
86	0x3cd3cbd4	0.025854029
87	0x3d775a33	0.060388755
88	0x3d821a11	0.06352628
89	0x3d90157b	0.07035347
90	0x3c370e89	0.011172899
91	0x3da922f3	0.08258619
92	0x3c8c1bf5	0.017103175
93	0x3d41ef90	0.047347605
94	0x3d2265a4	0.039647713
95	0x3bfe2d80	0.007756889
96	0x3cd3f272	0.025872443
97	0x3d4c1a58	0.04982981
98	0xbd599e45	-0.053129453
99	0x3d5f323d	0.05449127
100	0xbca8283c	-0.020526998
101	0xbb95f440	-0.004576236
102	0x3d1227d8	0.03568253
103	0xbd64816e	-0.055787496
104	0x3d17079f	0.036872502
105	0xbd40eeb5	-0.04710265
106	0x3bcc6d56	0.00623862
107	0x3d42cc86	0.04755833
108	0xbdbc195f	-0.09184527
109	0x3d4c9529	0.049946938
110	0x3d30d7ba	0.043174483
111	0xbdd1ef8a	-0.102507666
112	0x3c3367e2	0.010950061
113	0x3d0d7ad0	0.03454095
114	0xbd84c1e3	-0.064822935
115	0x3daa51fa	0.08316417
116	0xbdcdab70	-0.10042465
117	0xbd024f6c	-0.031814024
118	0x3d4238e0	0.04741752
119	0x3c1acb0c	0.009447824
120	0xbd9e700b	-0.07736214
121	0x3da58ca8	0.08083469
122	0xbe087e3d	-0.13329406
123	0x3db60c75	0.08889095
124	0xbe04d531	-0.12971951
125	0x3e13a8ba	0.14419833
126	0xbe1f4f09	-0.15557493
127	0x3a9fe39a	0.0012198568
128	0x3dde421b	0.10852452
129	0xbdc06ebc	-0.09396121
130	0x3d680990	0.056649745
131	0xbe05ee08	-0.13079083
132	0x3c26571b	0.0101526035
133	0x3dcd11e0	0.10013175
134	0xbdc79e2e	-0.09746967
135	0x3c6d5832	0.014486359
136	0xbcd23ae1	-0.025662841
137	0x3cb5a569	0.0221736
138	0xbcaa1f11	-0.020766767
139	0x3d5ba489	0.05362371
140	0xbe0ed8eb	-0.13949935
141	0x3d8bdf55	0.068297066
142	0x39e93904	0.00044483703
143	0xbca9a2c1	-0.02070749
144	0xbcffd26b	-0.031228265
145	0x3d7032e8	0.058642298
146	0xbc8fb366	-0.017541599
147	0xbd5921dd	-0.05301081
148	0x3d49202a	0.04910294
149	0xbcb2d5d9	-0.021830486
150	0x3d38cbfe	0.045116417
151	0x3b0f19e6	0.0021835505
152	0x3d779764	0.06044711
153	0x3dee69ac	0.11641249
154	0xbd4de0fd	-0.050263394
155	0x3bb2e853	0.005459824
156	0xbd3d0c21	-0.046154145
157	0x3cc2ac0e	0.023763683
158	0xbd27e69f	-0.04099142
159	0x3dba3762	0.09092595
160	0x3bb475ee	0.0055072224
161	0x3b87def3	0.0041464507
162	0xbb234fa6	-0.00249193
163	0xbc09cb33	-0.008410263
164	0xbd2673c9	-0.040637765
165	0xbddf5295	-0.10904423
166	0xbc1e8d6a	-0.00967727
167	0x3c902433	0.017595386
168	0x3d4b201c	0.04959117
169	0xbb7ffc82	-0.0039060418
170	0x3c9736e1	0.018458785
171	0x3c0f7d53	0.008757907
172	0x3b18e173	0.0023327738
173	0x3d908f38	0.07058567
174	0xbd25fa8b	-0.04052214
175	0xbd8f02fb	-0.0698299
176	0xbd52de65	-0.051481623
177	0x3db49c79	0.08818907
178	0xbccd87b4	-0.025089122
179	0x3dcd8d13	0.100366734
180	0xbd0b42d8	-0.033999294
181	0x3d94c6d0	0.07264483
182	0xbde8ccc9	-0.11367185
183	0xbd95d735	-0.07316438
184	0xbdb9c041	-0.09069873
185	0x3d897e82	0.067135826
186	0xbd82afae	-0.063811645
187	0x3d63e4f5	0.055638272
188	0x3c08814b	0.008331607
189	0x3ca44c00	0.02005577
190	0xbdafc8bf	-0.08583211
191	0x3d149cb9	0.036282275
192	0x3d708af2	0.05872626
193	0xbd6e8eba	-0.058241583
194	0xbdb2310b	-0.087007605
195	0xbd966a9a	-0.073445514
196	0x3d51a6bc	0.0511844
197	0x3dd43e1b	0.10363408
198	0x3dfbc1d4	0.12292829
199	0xbe19be37	-0.15013967
200	0xb97d8835	-0.00024178701
201	0xbd3fa002	-0.046783455
202	0xbc575922	-0.0131438095
203	0x3d8bc550	0.06824744
204	0xbbe7707d	-0.00706297
205	0xbd5abaee	-0.053400926
206	0xbd20a8d1	-0.039223496
207	0xbb77e8d4	-0.0037827985
208	0x3db83189	0.08993823
209	0xbc65db88	-0.014029391
210	0xbdc59799	-0.096480556
211	0x3d488615	0.048955996
212	0x3cf6d2f5	0.030129889
213	0xbcc3cf94	-0.023902692
214	0xbd7a05d9	-0.061040733
215	0x3d839a6a	0.064259365
216	0xbbf23275	-0.007391269
217	0xbc850458	-0.016237423
218	0xbcf5dc68	-0.030012324
219	0x3d39813f	0.045289274
220	0xbbc04a34	-0.0058682207
221	0xbd736567	-0.059422877
222	0x3dbf2783	0.09333708
223	0xbcf6808d	-0.030090595
224	0xbd53f059	-0.051742885
225	0x3d5c1356	0.053729378
226	0xbd6db07d	-0.05802964
227	0x3d93bf05	0.072141685
228	0xbcb7a490	-0.022417337
229	0xbd64cc25	-0.05585875
230	0x3dcb7584	0.09934524
231	0xbd24f74d	-0.040274907
232	0xbcfba17a	-0.030716646
233	0x3c2efa39	0.010679775
234	0x3d93a59d	0.072093226
235	0xbd80b960	-0.062853575
236	0x3d7d0636	0.0617735
237	0x3d3c092f	0.045907196
238	0xbdc0f380	-0.09421444
239	0x3d11fa5b	0.03563915
240	0x3dcf41d9	0.10119981
241	0xbdd75e18	-0.10515994
242	0x3d0bba36	0.03411313
243	0x3de406f4	0.11134139
244	0xbdcb2462	-0.09919049
245	0x3e016f2b	0.12640063
246	0xbe07aa2a	-0.13248506
247	0x3e10e7e9	0.14150967
248	0xbe051905	-0.12997825
249	0x3dc87c03	0.09789278
250	0xbdbc694b	-0.091997705
251	0xbcf93539	-0.030420886
252	0x3d8d1d58	0.068903625
253	0xbda02e5a	-0.07821341
254	0x3d288407	0.041141536
255	0xbdbda331	-0.09259642

feature_extractor.0.bias f4 [16]
0	0x3e6c3cd0	0.23070073
1	0xbde3c2df	-0.11121153
2	0x3e106bb2	0.14103583
3	0xbe9e0572	-0.3086353
4	0xba46539e	-0.00075655605
5	0xbe8d7158	-0.27625537
6	0x3e6b5a9a	0.2298378
7	0xbabeb3c1	-0.001454942
8	0xbeac75a4	-0.33683503
9	0xbb25e79c	-0.0025315052
10	0xbe4ff85f	-0.2030959
11	0xbec0d1a5	-0.37659946
12	0x3e4c3c27	0.19944821
13	0xbe2095bd	-0.1568212
14	0x3e9e1290	0.30873537
15	0xbece2997	-0.40266106

feature_extractor.4.weight f4 [16, 16, 1, 50]
0	0xbd5446c7	-0.05182531
1	0xbd0841f9	-0.03326604
2	0xbd05078a	-0.032477893
3	0xbd3ea7a2	-0.046546586
4	0xbd193c3d	-0.037410963
5	0xbcb411f0	-0.02198121
6	0xbd243618	-0.04009065
7	0xbd094b82	-0.033519275
8	0xbca03b61	-0.019559564
9	0xbcd99d43	-0.026564246
10	0xbd1d6676	-0.038427792
11	0xbd0a3846	-0.033745073
12	0xbcc7cc58	-0.02438943
13	0xbd40ceb8	-0.047072142
14	0xbd52a93f	-0.051430937
15	0xbd2652fe	-0.04060649
16	0xbd1b6ebc	-0.0379474
17	0xbd1ff76a	-0.03905431
18	0xbd383bb1	-0.0449788
19	0xbd2f3d8c	-0.042783305
20	0xbd481a52	-0.048853226
21	0xbd294bd9	-0.0413321
22	0xbcaa9512	-0.020823035
23	0xbcf7610d	-0.030197645
24	0xbcd0fcbb	-0.025511136
25	0xbccfa3de	-0.025346693
26	0xbcb301ef	-0.021851508
27	0xbc93bb12	-0.018033538
28	0xbd2695a5	-0.040670056
29	0xbcd5defc	-0.026107304
30	0xbcc6b31f	-0.024255333
31	0xbd0c187b	-0.034203034
32	0xbd00dd6d	-0.031461168
33	0xbcc52e0b	-0.024069807
34	0xbd44369f	-0.047903653
35	0xbd2cd79a	-0.0421978
36	0xbd5e7914	-0.054314688
37	0xbd21fca2	-0.03954757
38	0xbcc96e4f	-0.024588732
39	0xba6b320e	-0.00089719973
40	0xbd3ed694	-0.046591356
41	0xbcb09e00	-0.021559715
42	0xbd698f55	-0.057021458
43	0xbd5f0803	-0.054451
44	0xbd21f5ad	-0.039540935
45	0xbd70c423	-0.0587808
46	0xbd3a6f29	-0.045516167
47	0xbbfecb03	-0.0077756657
48	0xbcafbfdb	-0.021453789
49	0xbbe91a05	-0.0071136975
50	0xbbc70b8b	-0.006074374
51	0xbcc06495	-0.023485461
52	0x3c47e635	0.012200882
53	0x3c64218d	0.013924015
54	0xbca5ba9e	-0.020230588
55	0x3aed9bc1	0.0018128083
56	0xba4a1e7e	-0.0007710232
57	0x3bd861c3	0.006603451
58	0x3c0d7086	0.008632785
59	0xbb7c0ab0	-0.0038458519
60	0xbc2b7f93	-0.010467428
61	0x3c80af5a	0.015708614
62	0x3bdb0dfe	0.0066850176
63	0x3bf746f0	0.007546298
64	0x3aed462f	0.0018102581
65	0x3c07ff44	0.008300606
66	0x3bbd1078	0.0057697855
67	0xbbe9145c	-0.0071130227
68	0x3bb35fc2	0.0054740617
69	0xbbbec006	-0.005821231
70	0x3c493be6	0.012282347
71	0xbad12a5c	-0.0015958059
72	0xbc42368c	-0.011853825
73	0xba2f8437	-0.0006695422
74	0x3be4872d	0.006974122
75	0xbbb3f6da	-0.0054920735
76	0x3b0f101f	0.0021829677
77	0xba2c1257	-0.0006564012
78	0xbaa99b1a	-0.0012939901
79	0xbbe1bc95	-0.006888936
80	0xbc5c40d2	-0.013443189
81	0xbc07d95e	-0.0082915705
82	0x3c7f7130	0.015590951
83	0x3cb39c67	0.021925164
84	0x3cabde67	0.020980073
85	0xbc2e7778	-0.010648601
86	0x3c5c5e44	0.013450209
87	0x3c862695	0.01637582
88	0xbb8ca84f	-0.004292525
89	0xbc717d06	-0.014739281
90	0xbb96da7a	-0.004603681
91	0xbc86fd6a	-0.01647826
92	0x3bf6e942	0.0075351307
93	0x3a19e1e1	0.00058701454
94	0x3c607a55	0.013701041
95	0xbb930e86	-0.0044878153
96	0x3b7441fe	0.003727078
97	0x3ce243a1	0.027620139
98	0x3c3b078c	0.0114153735
99	0x3d2bf7ba	0.041984297
100	0x3d84cf36	0.06484835
101	0x3d334dbc	0.043775305
102	0x3d69c962	0.05707682
103	0x3d64e341	0.05588079
104	0x3d75d20b	0.060014766
105	0x3c98ed76	0.018667918
106	0x3d60ad7f	0.05485296
107	0x3d35ac38	0.044353694
108	0x3d6dfd9c	0.05810319
109	0x3d6bc5ff	0.05756187
110	0x3cb0155e	0.021494564
111	0x3d4c820c	0.04992871
112	0x3d1a2f4a	0.037642755
113	0x3d28df2a	0.04122845
114	0x3d708a05	0.058725376
115	0x3cf9a8c6	0.030475985
116	0x3d54feda	0.052000858
117	0x3d52bd20	0.051449895
118	0x3d162a60	0.036661506
119	0x3d068b53	0.032847714
120	0x3d5fc418	0.05463037
121	0x3d4f948d	0.05067878
122	0x3d3b6436	0.045749865
123	0x3d17ea45	0.03708865
124	0x3d244f1d	0.04011451
125	0x3d698468	0.057011038
126	0x3d4a4fee	0.049392633
127	0x3d8a17d0	0.06742823
128	0x3da81a20	0.08208108
129	0x3d80c433	0.06287422
130	0x3d92c955	0.07167307
131	0x3d300398	0.042972177
132	0x3d1440f9	0.036194775
133	0x3cf89978	0.030346617
134	0x3cdd0244	0.02697862
135	0x3cc12a81	0.023579838
136	0x3cb822cf	0.022477536
137	0x3c9cb971	0.019131394
138	0x3ba8afef	0.005147926
139	0xbb0320fa	-0.002000867
140	0xbd112fd9	-0.03544602
141	0xbc1e8434	-0.009675074
142	0x3b8cedbd	0.0043008015
143	0x3ccc4a14	0.024937667
144	0x3c84325a	0.01613729
145	0x3b8a1d7a	0.0042149397
146	0x3d6e8443	0.058231603
147	0x3dc64d39	0.09682698
148	0x3dbbd6dd	0.09171841
149	0x3e1a1b2a	0.15049425
150	0xbdaeb681	-0.085309036
151	0xbdac67cc	-0.08418235
152	0xbcb6ea8b	-0.022328636
153	0xbcd5d690	-0.026103288
154	0x3c86cfce	0.01645651
155	0x3a4cdd4b	0.00078149576
156	0x3c9a56b5	0.018840173
157	0xbd326c23	-0.04356016
158	0xbcd1c223	-0.025605267
159	0x3b99985e	0.004687353
160	0xbbbc2312	-0.0057414854
161	0x3c07d90e	0.008291496
162	0xbd8121e1	-0.0630529
163	0xbc00c14a	-0.007858584
164	0xbca670d9	-0.020317482
165	0xbae83fcd	-0.001771921
166	0xbc85b0c9	-0.01631965
167	0xbb9d0555	-0.0047918954
168	0xbcb756a9	-0.02238019
169	0xbbe2f70c	-0.006926423
170	0xbc51c31c	-0.012802865
171	0xbc623eed	-0.013808948
172	0xbd14561f	-0.036214944
173	0xbd117f4d	-0.035521794
174	0xbccd4f6c	-0.025062285
175	0xbd06f36a	-0.03294698
176	0xbcb14b9a	-0.021642495
177	0xbce2f890	-0.027706414
178	0xbcf08e37	-0.029364688
179	0xbd119a93	-0.035547804
180	0xbd4f93a0	-0.050677896
181	0xbd0f451b	-0.034978013
182	0xbcf19107	-0.0294881
183	0xbcb1d148	-0.021706238
184	0xbc945b81	-0.018110039
185	0xbd382a57	-0.044962253
186	0xbd36cf03	-0.044631016
187	0xbcb9892b	-0.022648415
188	0xbcc894b2	-0.024484966
189	0xbc8109f3	-0.015751814
190	0xbc862aa6	-0.016377758
191	0xbc6a00fc	-0.014282461
192	0xba204544	-0.0006113837
193	0xbc1df67d	-0.009641287
194	0xbc68faec	-0.014219981
195	0x3caaa83f	0.02083218
196	0x3cc381a9	0.023865538
197	0x3d5d8d44	0.0540898
198	0x3da63b2e	0.081167564
199	0x3da875d4	0.08225599
200	0x3ca49527	0.020090653
201	0x3cb993e4	0.022653528
202	0x3d1bd2ee	0.038042955
203	0x3d74ce90	0.059767306
204	0x3d44206e	0.04788249
205	0x3b8cff84	0.004302921
206	0x3cc95e55	0.024581114
207	0x3ceb811c	0.028748088
208	0x3c28e275	0.010307898
209	0x3d4799dc	0.048730716
210	0x3d46cc1b	0.048534494
211	0x3d2d7ac1	0.042353395
212	0x3d0f0b2b	0.03492276
213	0x3d40586b	0.046959322
214	0x3cd9034c	0.02649083
215	0x3d2d5609	0.042318378
216	0x3d22e64a	0.039770402
217	0x3d2afb22	0.041743405
218	0x3d2d6247	0.042330053
219	0x3d6a3a35	0.057184417
220	0x3d371f38	0.044707507
221	0x3d33cb1c	0.043894872
222	0x3c5830e5	0.013195251
223	0x3cbf1dd6	0.023329657
224	0x3d67d12a	0.05659596
225	0x3cc5e6db	0.024157932
226	0x3c9cd947	0.019146575
227	0x3c94d440	0.018167615
228	0x3cbed582	0.023295168
229	0x3cebb981	0.028774979
230	0x3d35f9b2	0.04442758
231	0x3cb63602	0.02224255
232	0x3d88aec3	0.06673958
233	0x3d514c3f	0.051098105
234	0x3cabe0e8	0.020981267
235	0x3cc22db9	0.023703443
236	0xbcb5f86b	-0.022213181
237	0xbc55231b	-0.013008858
238	0xbbd97832	-0.006636643
239	0xbc5211a6	-0.0128215905
240	0xbc8b18e1	-0.016979637
241	0xbd2d1f21	-0.042266015
242	0xb9b3338f	-0.00034179955
243	0x3ce6bba3	0.028165644
244	0xbba3a2c8	-0.0049937703
245	0x3d710ba3	0.05884899
246	0x3d86e2f8	0.065862596
247	0x3de5b7f3	0.11216726
248	0x3df80baf	0.121116035
249	0x3de0926f	0.1096543
250	0xbe15f385	-0.14643677
251	0xbdc3498b	-0.095355116
252	0xbe24ce93	-0.16094427
253	0xbe021919	-0.12704886
254	0xbdf54b68	-0.11977273
255	0xbdf0ce36	-0.117580816

feature_extractor.4.bias f4 [16]
0	0x3e24ed70	0.161062
1	0x3f1377e8	0.5760484
2	0xbed743ad	-0.4204382
3	0x3e27818e	0.16358015
4	0x3ec343cc	0.38137662
5	0x3eb2b1b8	0.34901214
6	0xbf0e8e57	-0.55685943
7	0x3ed914ab	0.4239858
8	0x3ea9e2d6	0.33180875
9	0x3e4f4ab5	0.20243342
10	0x3e3b40c7	0.1828643
11	0x3e3b81c6	0.18311223
12	0x3e81fe8d	0.2538952
13	0x3e531ec6	0.20617208
14	0x3eb15bbc	0.346403
15	0x3f1d9aba	0.6156422

0.weight f4 [96, 96]
0	0x3d09bb12	0.03362567
1	0x3d3dcb76	0.046336614
2	0xbcf90b45	-0.030400882
3	0xbbacd09b	-0.005273891
4	0xbc14996a	-0.00906978
5	0xbe489b24	-0.19590431
6	0xbcd080ed	-0.025452102
7	0x3d19f967	0.037591364
8	0x3daadcea	0.08342917
9	0xb9da5825	-0.00041645873
10	0xbe02c480	-0.12770271
11	0x3b583201	0.003298879
12	0xbc8390d8	-0.016060278
13	0xbdd121bc	-0.102115124
14	0x3d9fb2f9	0.07797808
15	0x3bf70480	0.0075383782
16	0xbcd23a78	-0.025662646
17	0x3de99935	0.11406175
18	0x3cd91299	0.026498126
19	0x3e289b94	0.16465598
20	0x3d620279	0.05517814
21	0xbdd5cbdc	-0.10439274
22	0x3bdfb65b	0.0068271584
23	0x3e1534d1	0.14570929
24	0xbd8b1449	-0.067909785
25	0xbddab294	-0.10678592
26	0x3b73ba7e	0.0037190015
27	0x3d8ff326	0.07028799
28	0x3be18f01	0.0068835025
29	0xbd198fb0	-0.037490547
30	0xbcb34f2b	-0.021888336
31	0xbd29cef2	-0.041457124
32	0xbda04c10	-0.07827008
33	0x3d800c31	0.06252325
34	0x3d1be100	0.038056374
35	0xbdc6c7bb	-0.09706064
36	0xbd17ec73	-0.03709073
37	0xbb528340	-0.0032121688
38	0x3e3bb318	0.18330038
39	0x3c8ed047	0.017433299
40	0xbc481a93	-0.012213367
41	0x3c114f14	0.008868951
42	0x3e18c2e6	0.14918098
43	0xbe3873ca	-0.1801292
44	0xbce79862	-0.028270904
45	0x3d129ede	0.03579604
46	0x3ccfb426	0.025354456
47	0xbdc531f7	-0.09628671
48	0x3dea6ab0	0.1144613
49	0x3da69e23	0.08135631
50	0xbc8f1e11	-0.017470391
51	0xbcc7efa9	-0.024406271
52	0x3d893fb3	0.06701603
53	0xbd9b9985	-0.07597641
54	0xbce86bf6	-0.028371792
55	0xbdbaf06a	-0.091278866
56	0xbd96c24e	-0.073612794
57	0x3b8b1645	0.004244598
58	0x3cc1f18e	0.023674753
59	0xbc353407	-0.011059768
60	0xbdd2350d	-0.10264025
61	0x3d5baebb	0.053633433
62	0x3c6f2334	0.014595795
63	0xbd09d996	-0.03365477
64	0xbcad97a5	-0.021190474
65	0x3dcdc0ee	0.10046564
66	0x3e1e143a	0.15437403
67	0xbe1a680e	-0.15078756
68	0xbd2f0358	-0.0427278
69	0x3d040d07	0.032238986
70	0x3d235269	0.039873514
71	0x3d39a137	0.045319762
72	0x3b652a7d	0.0034967952
73	0x3d5a8a40	0.0533545
74	0xbd9b5c05	-0.07585911
75	0xbcaaaf55	-0.020835558
76	0x3d94b524	0.07261112
77	0x3e02e153	0.12781267
78	0x3c1093d1	0.008824305
79	0x3d5f0ee8	0.054457575
80	0x3d5dc1df	0.054139968
81	0xbc8dbbda	-0.017301489
82	0xbd9be1a1	-0.07611395
83	0x3e102e25	0.14080103
84	0x3ac59eb2	0.0015077202
85	0x3d9a4285	0.07532219
86	0x3c94f050	0.018180996
87	0xbd062722	-0.032752164
88	0x3d8076df	0.06272673
89	0x3dd2ee8f	0.10299408
90	0xbdb92efe	-0.09042166
91	0x3dca6c11	0.09883893
92	0x3e105119	0.14093436
93	0x3c4c09ce	0.0124535095
94	0xbdc1b3f0	-0.094581485
95	0xbd99c2f1	-0.07507885
96	0x3c7ac9ca	0.015306899
97	0x3dceaf15	0.10091988
98	0xbccc763d	-0.024958724
99	0xbc8f7256	-0.017510574
100	0xbae029cd	-0.0017102301
101	0x3d8f618f	0.0700103
102	0xbd7605b8	-0.060064048
103	0x3dc0723e	0.0939679
104	0x3da103ea	0.07862075
105	0xbca0f18b	-0.019646427
106	0x3dd770bf	0.105195515
107	0x3e1a8b10	0.1509211
108	0xbd30c06f	-0.04315227
109	0xbdb7cdff	-0.089748375
110	0x3c6f13af	0.014592095
111	0xbb18605b	-0.0023250792
112	0xbd5ce006	-0.053924583
113	0x3d52486f	0.05133861
114	0xbd72fc06	-0.05932238
115	0x3d91037a	0.07080741
116	0xbaadc30f	-0.0013256985
117	0xbe0bdfb0	-0.13659549
118	0xbc9b0bcb	-0.018926522
119	0xbcbdbc2f	-0.023161022
120	0xbd67db77	-0.056605782
121	0xbc3e65ba	-0.011620933
122	0x3d03cb32	0.032176204
123	0x3dd23b09	0.10265166
124	0xbd8a4ba9	-0.06752712
125	0x3c0b7506	0.008511787
126	0xbd80025e	-0.062504515
127	0xbcec92e4	-0.028878637
128	0xbc1f6aa4	-0.009730015
129	0x3bd40a82	0.006470979
130	0xbdc771f7	-0.09738534
131	0xbccb06e8	-0.024783567
132	0x3c4629e6	0.01209495
133	0x3d14d8e8	0.03633967
134	0x3e033519	0.12813224
135	0x3d614821	0.055000428
136	0xbdcfe841	-0.10151721
137	0xbc0a3337	-0.008435062
138	0x3d24d625	0.040243287
139	0xbd9e05f3	-0.077159785
140	0xbd93915b	-0.07205459
141	0x3c921749	0.017833369
142	0xbcb15e53	-0.021651423
143	0x3d322da4	0.043500558
144	0x3d81e53d	0.06342552
145	0x3c9a13cd	0.01880827
146	0xbd080fb3	-0.033218097
147	0x3d436b9d	0.04771005
148	0xbd25317e	-0.040330403
149	0x3c97af82	0.018516306
150	0x3d76bae4	0.060236827
151	0x3c822c7c	0.015890352
152	0xbc5285f9	-0.012849324
153	0x3d4c423c	0.049867854
154	0x3cff44d0	0.031160742
155	0x3d3e6ac8	0.046488553
156	0xbd0031f3	-0.031297635
157	0x3cfaeffe	0.030632015
158	0x3db65a78	0.08903974
159	0xbaaa993a	-0.0013015636
160	0x3d276824	0.0408708
161	0xbcb621f2	-0.022232983
162	0x3d60d33f	0.05488896
163	0xbdf757ee	-0.12077318
164	0xbd145bc1	-0.036220316
165	0x3d82fba5	0.06395654
166	0xbd7f1bc1	-0.062282328
167	0xbd9ad6e3	-0.07560518
168	0xbd2301b0	-0.03979653
169	0x3c91fb82	0.017820124
170	0xbc0a96f8	-0.008458845
171	0xbd60a6a4	-0.05484642
172	0xbda8249f	-0.0821011
173	0xbceb1146	-0.02869476
174	0xbdb366ad	-0.08759818
175	0x3cd10451	0.025514754
176	0x3d8734ae	0.06601845
177	0xbd9f8605	-0.07789234
178	0xbd4be28e	-0.049776606
179	0xbd8df0c0	-0.06930685
180	0x3d27824a	0.040895738
181	0x3d7a2960	0.061074615
182	0x3d5bef8a	0.05369524
183	0x3d2e06f5	0.042487103
184	0x3c457936	0.012052825
185	0x3debe58b	0.11518391
186	0xbdbae581	-0.09125806
187	0x3db82bdd	0.08992741
188	0x3ae391cb	0.0017362175
189	0x3d799346	0.060931467
190	0x3d8a7943	0.0676141
191	0x3dd5bf62	0.10436894
192	0xbba73465	-0.0051026815
193	0x3d4443df	0.04791629
194	0xbd5c7b3f	-0.053828474
195	0xbda6305f	-0.08114695
196	0xbd9b017e	-0.07568644
197	0x3e403069	0.18768467
198	0x3c8b19fd	0.016980166
199	0xbc0f238f	-0.008736505
200	0xbc72dc51	-0.014823035
201	0x3dbaa01a	0.09112568
202	0x3dc28738	0.09498447
203	0x3e542a19	0.20719184
204	0x3d5efd8a	0.054441012
205	0xbd6a2172	-0.057160802
206	0x3d7c7f77	0.061644997
207	0x3e0dc1f5	0.1384352
208	0x3d8b6fcf	0.06808435
209	0xbb403996	-0.00293312
210	0xbb70a943	-0.0036721982
211	0xbde11a00	-0.10991287
212	0xbdc6f93b	-0.09715506
213	0x3d16ed36	0.036847316
214	0xbd9febd6	-0.07808654
215	0xbe15ab02	-0.14616016
216	0xbc3aeafe	-0.011408566
217	0x3d2577e9	0.04039756
218	0xbc88dc76	-0.016706686
219	0xbcfb0d6a	-0.030646045
220	0x3c0f39c3	0.008741799
221	0xbcaa2ca3	-0.020773238
222	0x3d86bb1e	0.065786585
223	0xba821b50	-0.0009926353
224	0x3d92a210	0.07159817
225	0xbd333145	-0.04374816
226	0xbd9efba0	-0.077628374
227	0xbda75cd1	-0.08172
228	0xbbdaf0f2	-0.006681555
229	0x3d464281	0.048403267
230	0xbda790c1	-0.081819065
231	0x3a6d1c44	0.00090450444
232	0xbc1a577d	-0.009420273
233	0x3b8a4703	0.004219891
234	0x3d20103d	0.039077986
235	0x3d00dfa8	0.031463295
236	0x3d3af3a6	0.045642518
237	0xbd155241	-0.036455397
238	0x3dadd245	0.08487371
239	0x3dffc19a	0.124880984
240	0xbdc416ef	-0.09574687
241	0xbcd5a900	-0.026081562
242	0x3c41feb1	0.011840508
243	0x3cb6c323	0.022309845
244	0x3d5c77fe	0.05382537
245	0x3df33a80	0.11876392
246	0xbc12a66e	-0.008950813
247	0x3d62522d	0.05525415
248	0x3d45bdb3	0.048276614
249	0xbc5c611a	-0.013450885
250	0x3d938159	0.072024055
251	0xbd8670a9	-0.06564457
252	0x3d75d91c	0.060021505
253	0x3ccb4441	0.02481282
254	0x3d0ce798	0.034400553
255	0x3c7e558f	0.015523328

0.bias f4 [96]
0	0xbe65b764	-0.22433239
1	0xbde236f8	-0.11045641
2	0xbd4f58e4	-0.050621882
3	0x3eb5e76a	0.35528117
4	0x3e6b0d3a	0.22954264
5	0x3cc39383	0.02387405
6	0x3e948f1d	0.29015437
7	0xbf01b36e	-0.5066441
8	0x3e1134cd	0.14180298
9	0x3ed3d2c8	0.4137175
10	0xbf4591e2	-0.77175725
11	0x3e3be4e4	0.18349034
12	0x3e0a9657	0.13533913
13	0xbdf97e58	-0.12182301
14	0x3b4fa3bf	0.0031683294
15	0xbedf0621	-0.43559363
16	0xbf187e7f	-0.5956802
17	0x3f0478df	0.51746935
18	0xbd8cdb7f	-0.06877803
19	0x3e9ad678	0.30241752
20	0x3f16f686	0.58969915
21	0x3e1ca0ed	0.15295763
22	0x3ea8d382	0.32973868
23	0xbe49e31e	-0.19715545
24	0xbec1076e	-0.3770098
25	0x3edf1d2b	0.4357694
26	0xbc3fdd98	-0.011710547
27	0x3d0a2e69	0.033735666
28	0xbdb9fc9f	-0.09081387
29	0xbdfd2886	-0.12361245
30	0xbd252659	-0.040319774
31	0x3e22b79e	0.15890357
32	0x3e394ca7	0.18095647
33	0xbe945429	-0.2897046
34	0x3ec7e529	0.39042023
35	0xbec79ae7	-0.3898537
36	0xbdef1e5f	-0.11675715
37	0xbebd5bea	-0.36984187
38	0x3ec80479	0.39065912
39	0xbe31b684	-0.1735478
40	0xbf1ad22b	-0.6047694
41	0xbe29ffa6	-0.16601428
42	0x3e7fd034	0.24981767
43	0xbe6cb9f7	-0.23117815
44	0x3cd44bdf	0.025915084
45	0x3e84b949	0.2592261
46	0x3da9b3e5	0.08286265
47	0x3ed506e9	0.41606835
48	0x3dad5979	0.08464331
49	0xbc760503	-0.015015843
50	0xbe0015cd	-0.12508316
51	0x3e0c3732	0.1369293
52	0xbdf2e525	-0.11860112
53	0xbc1ea099	-0.009681844
54	0x3e211fe8	0.15734828
55	0x3f22e230	0.63626385
56	0xbeae98fa	-0.34101087
57	0xbdbc61dc	-0.09198353
58	0xbd0a8a96	-0.033823572
59	0xbe1a3c2b	-0.15062015
60	0xbc22ae96	-0.00992932
61	0xbe09c7cb	-0.13455121
62	0xbed94048	-0.42431855
63	0xbf36b005	-0.71362334
64	0xbe68959a	-0.22713318
65	0xbc8b6b0c	-0.017018817
66	0x3db2039f	0.08692097
67	0x3d4978e4	0.049187556
68	0x3e92d277	0.28676197
69	0xbe03162e	-0.1280143
70	0x3ec63595	0.38712755
71	0x3c8be9e1	0.017079296
72	0x3dc3fc19	0.09569568
73	0x3f4fafdd	0.8112772
74	0x3e8d89fe	0.27644342
75	0xbeb61ba4	-0.35567963
76	0x3e3d6c26	0.18498287
77	0x3e6397f1	0.2222593
78	0xbf0499f7	-0.5179743
79	0x3e67a833	0.22622757
80	0x3e175d3c	0.1478166
81	0x3e4ce7d9	0.20010318
82	0x3e8a2d5d	0.26987734
83	0x3caa29ba	0.02077185
84	0x3e61dff1	0.22058083
85	0x3f352517	0.7075972
86	0xbe44a9d4	-0.1920541
87	0x3ebf86d6	0.3740756
88	0xbe5f8ac7	-0.21830283
89	0x3e2e679b	0.1703171
90	0x3e798c25	0.24369867
91	0xbc97a6e3	-0.018512195
92	0xbe57051b	-0.20998041
93	0x3eb851d2	0.35999924
94	0xbe83c778	-0.2573812
95	0xbddba2ef	-0.107244365

2.weight f4 [48, 96]
0	0x3d716265	0.058931727
1	0x3c0fa305	0.008766894
2	0xbb823290	-0.0039733127
3	0x3dd5d79a	0.10441513
4	0xbdb78489	-0.08960826
5	0xbd1ffa52	-0.039057083
6	0xbc90aaa3	-0.01765949
7	0xbd41b278	-0.04728934
8	0xbcd05bc9	-0.025434392
9	0x3cb92e12	0.022604976
10	0xbd7f62c3	-0.062350046
11	0x3d83654f	0.064158075
12	0x3d064671	0.032782022
13	0xbca33524	-0.0199228
14	0x3ce1eff4	0.027580239
15	0x3cdb4f3d	0.026771182
16	0xbd63a59c	-0.05557786
17	0x3d953ed6	0.07287376
18	0x3c4149c8	0.011797376
19	0xbd8987cc	-0.06715354
20	0x3d774e4c	0.060377404
21	0x3ca57eb3	0.020202016
22	0x3d483ae5	0.04888429
23	0xbd13d68d	-0.036093283
24	0xbd251b10	-0.040309012
25	0xbda3a07d	-0.07989595
26	0x3b94c8a6	0.0045405207
27	0xbb518347	-0.0031969117
28	0xbd972133	-0.07379379
29	0xbc2dc2c3	-0.010605517
30	0xbc93f9d3	-0.018063461
31	0x3dccc917	0.09999292
32	0x3d0321b0	0.03201455
33	0xbdc13def	-0.09435641
34	0x3d9869fb	0.07442089
35	0xbc283c81	-0.0102683315
36	0xbd2eb118	-0.04264936
37	0xbd4f0993	-0.05054624
38	0x3c527e01	0.0128474245
39	0xbcae9fcb	-0.02131643
40	0x3bcfd98c	0.0063430723
41	0x3dcba766	0.09944038
42	0xbd111677	-0.035421815
43	0xbc477b59	-0.0121754045
44	0xbce866de	-0.028369363
45	0x3d73928d	0.059465934
46	0xbdaa2ee7	-0.08309727
47	0x3d5d8e0b	0.05409054
48	0x3dd27fd8	0.102782905
49	0xbc99584c	-0.018718861
50	0x3c603c86	0.013686305
51	0x3cbf555a	0.023356128
52	0xbdd22339	-0.102606244
53	0xbd3875df	-0.045034286
54	0x3d4b0163	0.04956187
55	0x3d97bf42	0.074095264
56	0x3d217b82	0.039424427
57	0x3c2dfd7f	0.01061952
58	0x3d5f37c3	0.054496538
59	0xbdb77c74	-0.089592844
60	0xbd627dc8	-0.055295736
61	0xbdc03156	-0.0938441
62	0x3cdd2e24	0.02699954
63	0xbe06fd27	-0.13182507
64	0x3c207795	0.009794136
65	0x3d09c6e9	0.03363696
66	0x3dff22c3	0.12457802
67	0x3ac53f38	0.0015048748
68	0x3d1504a0	0.036381364
69	0x3bdf7c7b	0.006820259
70	0xbc8fc8dc	-0.017551832
71	0xbe117a59	-0.14206828
72	0x3d7e3899	0.062065694
73	0x3dc54c04	0.096336395
74	0x3cd7248f	0.02626255
75	0xbd14c602	-0.036321647
76	0xbc0f4bf1	-0.008746133
77	0x36343ada	2.6856346e-06
78	0xbcd0061f	-0.025393544
79	0xbd8f8f38	-0.07009739
80	0x3db3cdaf	0.087794654
81	0xbce92c82	-0.028463606
82	0xbd0842c4	-0.033266798
83	0xbda63e62	-0.08117367
84	0xbcd98484	-0.026552446
85	0x3d7efb30	0.06225127
86	0xbd5ed630	-0.054403484
87	0x3b204823	0.002445706
88	0xbc816459	-0.01579492
89	0xbdbe5b8a	-0.092948034
90	0xbc2194c4	-0.009862129
91	0xbda661bc	-0.0812411
92	0xbda9ba95	-0.08287541
93	0x3db08ec6	0.08620982
94	0xbcda973d	-0.026683444
95	0x3d97c3fe	0.074104294
96	0xbc61cbdc	-0.013781514
97	0xbd245be7	-0.040126707
98	0xbd2deb37	-0.042460646
99	0x3cf2948b	0.029611846
100	0xbdb6be56	-0.089230224
101	0xbd33e439	-0.043918822
102	0xbc516076	-0.012779346
103	0x3c9ff6cd	0.019526863
104	0xbd1a79c9	-0.0377138
105	0xbdd6729d	-0.104710795
106	0x3d77482c	0.060371563
107	0x3d44e08d	0.04806571
108	0x3c7b1a86	0.015326148
109	0x3da4fd1b	0.080560885
110	0x3bed03fd	0.0072331415
111	0x3e01847a	0.12648192
112	0x3c2772a6	0.010220205
113	0xbd1430d4	-0.03617938
114	0xbc407a7e	-0.011747954
115	0xbb92f02e	-0.004484198
116	0xbd6d45c9	-0.05792788
117	0xbcb6f66d	-0.022334302
118	0xbc14887d	-0.0090657445
119	0x3d52781d	0.05138408
120	0x3d778000	0.060424805
121	0xbda88f81	-0.08230496
122	0x3d3609e2	0.04444302
123	0x3cb1287d	0.021625752
124	0x3dc3370c	0.09531984
125	0x3ccbd0a7	0.024879767
126	0x3da0ee3c	0.078579396
127	0x3e038c75	0.12846549
128	0xbc9f3a03	-0.019436842
129	0x3d39d2cc	0.045367047
130	0x3abd61dc	0.001444872
131	0x3dba6f19	0.091032214
132	0xbdac7fdc	-0.08422825
133	0x3bae028c	0.005310362
134	0x3a639ac2	0.00086824235
135	0x3cec3c62	0.028837387
136	0x3e13ae19	0.14421882
137	0x3d4394cb	0.047749322
138	0xbdc2d973	-0.095141314
139	0x3da03d23	0.07824161
140	0xbd47f84c	-0.04882078
141	0xbcf9a8f3	-0.03047607
142	0xbce76be2	-0.028249685
143	0xbd3dc541	-0.046330694
144	0x3c41c2d8	0.0118262395
145	0x3d14b2ad	0.03630321
146	0x3d037f4e	0.03210383
147	0x3da2a8c6	0.07942347
148	0xbd7d2876	-0.061806165
149	0x3cbe3b4a	0.02322163
150	0xbd7c64e6	-0.06161966
151	0xbcf03e26	-0.02932651
152	0x3d70206c	0.05862467
153	0x3d06c80d	0.032905627
154	0x3cf87df5	0.030333498
155	0x3b39c3f7	0.0028345564
156	0xbccc2135	-0.024918178
157	0xbdb02154	-0.08600107
158	0x3da3620f	0.079776876
159	0x3cada254	0.021195568
160	0xbb885171	-0.004160099
161	0xbd0b195c	-0.03395973
162	0xbd271036	-0.040786944
163	0x3c9b2026	0.018936228
164	0xbd3c4e89	-0.045973334
165	0xbd90989c	-0.07060358
166	0x3d262041	0.040558103
167	0xbc5ea2a9	-0.013588586
168	0x3d6a54e6	0.05720987
169	0xbdbfeb0b	-0.09371003
170	0x3dd06957	0.10176342
171	0x3d70fc83	0.058834564
172	0x3c245095	0.010028978
173	0x3cd219b0	0.025647014
174	0xbcd3d912	-0.025860343
175	0xbd187817	-0.0372239
176	0xbd72dfc0	-0.059295416
177	0xbdb59467	-0.08866196
178	0xbd4fc849	-0.050728116
179	0xbd5601ef	-0.052247938
180	0xbdb66ab4	-0.08907071
181	0xbd2f455c	-0.042790756
182	0xbd136315	-0.035983164
183	0xbdc925ec	-0.09821686
184	0x3db51cfb	0.08843418
185	0xbdd29558	-0.10282391
186	0xbd98b63d	-0.07456634
187	0xbde7e5c9	-0.11323125
188	0xbd5d012f	-0.053956207
189	0xbcae3b09	-0.021268385
190	0x3bc70638	0.0060737394
191	0x3c45bdff	0.012069224
192	0xbdb315bc	-0.0874438
193	0xbc54fb72	-0.012999402
194	0x3cf67c9e	0.030088719
195	0xbd837982	-0.0641966
196	0xbd0ed399	-0.034869764
197	0xbb9b2e43	-0.0047357394
198	0x3d35d2d0	0.0443905
199	0xbdcb7ab7	-0.099355154
200	0x3db884de	0.090097174
201	0x3dcbc7ea	0.0995024
202	0xbd0530bc	-0.03251718
203	0x3c8c0e26	0.01709659
204	0x3d2a823d	0.04162811
205	0x3c0b97e5	0.008520101
206	0x3d832eee	0.064054355
207	0xbba169fb	-0.004925964
208	0xbd017640	-0.031606913
209	0x3cb7c1d4	0.022431292
210	0x3da65511	0.08121694
211	0x3d804306	0.06262784
212	0x3d8549fe	0.065082535
213	0x3d1f7c4e	0.038936906
214	0xbd631e18	-0.05544862
215	0xbdea9d01	-0.11455727
216	0x3c98695c	0.018604927
217	0x3d702892	0.05863244
218	0xbd4dffcd	-0.05029278
219	0x3c907d2d	0.017637813
220	0xbca8fa47	-0.020627154
221	0x3d9e005d	0.07714913
222	0xbd0ddac1	-0.034632448
223	0x3d051e6b	0.032499712
224	0x3cbb0c76	0.02283309
225	0x3d4ad111	0.049515788
226	0x3ca655c4	0.020304568
227	0xbdf80009	-0.12109382
228	0x3d5d1f83	0.05398513
229	0x3d1c322b	0.03813378
230	0x3d81cd8b	0.06338032
231	0xbd8834a6	-0.06650667
232	0xbd25846a	-0.040409483
233	0x3c6604b9	0.014039212
234	0x3cd386e2	0.025821153
235	0xbd2855a8	-0.041097313
236	0xbc7e5439	-0.01552301
237	0xbcc6d21a	-0.024270106
238	0xbc7bce5c	-0.015369024
239	0x3c794406	0.015213972
240	0x3d98c323	0.074590944
241	0xbbbfa090	-0.005847998
242	0xbc5e4214	-0.013565559
243	0x3de5ed9a	0.112269595
244	0x3d961ba3	0.0732949
245	0x3d9f120d	0.07767115
246	0xbc7456b0	-0.014913246
247	0x3dac24dc	0.08405468
248	0xbd8454ba	-0.06461473
249	0xbc68b270	-0.014202699
250	0xbe0695e7	-0.1314312
251	0x3b7897c6	0.003793226
252	0xbdd05610	-0.10172665
253	0xbd38683d	-0.045021284
254	0x3d60c45e	0.05487477
255	0xbd4ca7a8	-0.049964577

2.bias f4 [48]
0	0xbc932b5a	-0.017965008
1	0xba2435fa	-0.00062641467
2	0x3bdefde9	0.006805171
3	0x3ceea31e	0.029130515
4	0xbc65130b	-0.013981591
5	0x3cb49b6f	0.022046773
6	0xbca158c0	-0.01969564
7	0xbca3da1a	-0.02000146
8	0xbcdbb8e2	-0.026821557
9	0x3b46a90c	0.0030313162
10	0xbc7a93cc	-0.015294027
11	0x3c47259a	0.012154961
12	0xbca2aadc	-0.019856863
13	0x39b92095	0.00035310225
14	0x3c2b5227	0.010456598
15	0xba326e0c	-0.00068065594
16	0xbc97069e	-0.018435773
17	0x3c1f2925	0.009714399
18	0xbc7dc1b5	-0.015488078
19	0xbbeada1a	-0.007167113
20	0xbc6cbc4e	-0.014449192
21	0x3d04a28f	0.03238159
22	0x3cad22d6	0.021134775
23	0x3cd2abfb	0.025716772
24	0xbd069459	-0.03285632
25	0xbc0d9cde	-0.008643357
26	0xbcd8ef51	-0.026481302
27	0x3b2d7fd7	0.0026473904
28	0x3ba44b90	0.0050138906
29	0xbbe4785a	-0.006972355
30	0x3cc4d260	0.024026096
31	0xbc429a64	-0.01187763
32	0xbbf2555d	-0.00739543
33	0xbbd64a79	-0.0065396396
34	0x3a8555bf	0.0010172649
35	0x3c683e32	0.014174985
36	0x3cb7ee0f	0.022452382
37	0x3bf932ee	0.0076049482
38	0x3c46d06d	0.0121346535
39	0x3cd4c53b	0.025972953
40	0x3ca7f763	0.020503705
41	0xbcc59aec	-0.024121724
42	0x3c2c4b3d	0.010515985
43	0xbc4f407e	-0.0126496535
44	0x3b685558	0.003545126
45	0xbcb80e65	-0.022467801
46	0x3b96a833	0.0045976876
47	0x3c17fc42	0.009276452
